backend/model.tflite (tflite, 11796 bytes, 5 tensors)

arith.constant f4 [1, 32]
000000 cb 31 30 3f 31 d9 39 bf 97 9c 14 bf 20 63 dc be
       0.6882598 -0.7259703 -0.5805144 -0.43044376
000010 cf 0b 2f be d6 7c 6f be d4 ce d8 be 83 fc ce 3e
       -0.17094348 -0.23387465 -0.42345297 0.40427026
000020 1c fb b8 3e c2 2f e8 3e cc 36 b9 be 23 83 63 be
       0.3612908 0.45348936 -0.3617462 -0.22217993
000030 4e 4d 6a be 80 0e 26 3f a8 ab f7 3e 4e 4d c5 3e
       -0.22881052 0.64865875 0.4837315 0.3853554
000040 a5 9e 0b bf af 75 00 bf d3 fc 21 3f 23 18 db 3e
       -0.5453895 -0.5017957 0.63276404 0.42791852
000050 0c 56 08 3f 15 87 2b bf 58 e8 39 3f 51 e2 cc be
       0.532563 -0.67002994 0.72620153 -0.40016416
000060 19 a5 d9 be ed e3 8e be 88 f1 f6 3e f5 cd cc be
       -0.42508772 -0.2790827 0.4823115 -0.40000883
000070 59 9e 05 3f 06 c0 9e be f7 60 30 3f 7a 9f 23 3f
       0.52194744 -0.31005877 0.68897957 0.63915217

arith.constant1 f4 [32, 64]
000000 19 12 91 3e 22 4c 39 3e d2 1a a6 bd ae 75 d4 3c
       0.2833412 0.18095449 -0.08110584 0.02593502
000010 cc 2f 1d 3e 9c 86 8f bc d3 12 1c bc 3b b7 3f be
       0.15350264 -0.017520241 -0.009525972 -0.1872224
000020 a8 af ef bd 93 a8 22 3e 15 c3 3b 3e 7a 63 25 3d
       -0.11703426 0.15884618 0.18336137 0.04037807
000030 f0 97 61 3e cb 43 f5 3d d9 ef 19 bd 1e 14 85 3e
       0.22030616 0.11975821 -0.037582252 0.2599191
000040 61 ed df 3b 16 b4 5a 3e 43 76 71 3d 51 42 91 3e
       0.0068337177 0.2135776 0.058950674 0.28370908
000050 0c 1a 4b be 8c 3e 8e bd 12 d8 25 be e9 e7 e5 3d
       -0.19834155 -0.069455236 -0.16195706 0.11225874
000060 2b c2 dc 3c e1 bd 26 bd 4a 73 cc 3d 23 49 e5 3d
       0.026948055 -0.040708426 0.09982927 0.1119559
000070 b3 e0 08 be 72 c3 9e bd 67 c9 2a 3e 07 72 53 3e
       -0.13366966 -0.07752122 0.16678391 0.20648967
000080 69 32 f6 3c 43 9e ae bc d4 4b 63 bc c5 df 96 3d
       0.030053334 -0.0213157 -0.013873059 0.073668994
000090 5b 7e 98 bc 4c 97 55 3e 4a d2 1a bd 9b dd 60 be
       -0.018614938 0.20858496 -0.037798204 -0.21959536
0000a0 95 34 a4 3c d4 6b d1 3c 47 8b 86 bd 9b 39 10 3e
       0.020044604 0.025564112 -0.06569534 0.14084475
0000b0 fe ff 07 bd b3 d2 6c be 75 a4 89 3e 75 17 7a be
       -0.033203118 -0.2312725 0.26883283 -0.2442301
0000c0 1f 5b 65 3b 21 17 69 3e 06 62 10 3d 52 bf 40 3d
       0.003499694 0.22762729 0.035249732 0.047057457
0000d0 e7 f3 e4 bc 7c f4 87 3e ba 33 86 bd 92 49 32 3e
       -0.027948333 0.26553714 -0.06552835 0.17410877
0000e0 2c 58 b1 3e 5a 4e 7d be c9 92 11 3e 82 fc 24 3d
       0.34637582 -0.2473692 0.1421615 0.040279873
0000f0 22 ef 43 3d ad 80 26 3e fe 28 d1 bd 11 d9 85 3e
       0.047835477 0.16260023 -0.10212897 0.2614217
000100 fa c7 34 3e 22 b4 1f be 98 93 10 3e f7 be 9c bd
       0.1765441 -0.15596059 0.14118803 -0.07653611
000110 a5 0a 33 be 6a 0e 0c 3e 24 c3 08 be 0e 44 a1 3e
       -0.1748453 0.13677374 -0.1335569 0.31497234
000120 62 a8 ae 3e 9d aa 20 bd c8 ea 8a be 39 b4 19 bc
       0.3411284 -0.03922521 -0.2713225 -0.009381347
000130 8a 31 82 bb 4e bf 37 bd 39 d2 04 3e 7d ee 3b be
       -0.0039731907 -0.044860177 0.12970819 -0.18352695
000140 e2 52 95 3d 8c 9f 07 bd b5 0b 31 be 07 d5 3c 3e
       0.07291199 -0.03311114 -0.17289622 0.18440638
000150 e6 7a 40 3e 4a a1 6d be 0c 65 b6 3e 35 e7 02 be
       0.18796882 -0.23206058 0.35623968 -0.12783511
000160 c8 b0 3d 3e 5e 62 cd 3e b2 fc 7c 3d c1 b3 b6 3e
       0.18524468 0.4011411 0.061764427 0.35684016
000170 a4 e6 36 3d fc d5 e0 3d 28 8e fb 3c 1c 32 fa bd
       0.04465355 0.10978314 0.030707434 -0.12216589
000180 d9 b5 b2 bd 4b 20 f2 3d ac 70 c7 bd d7 75 28 3d
       -0.08726091 0.11822566 -0.09738287 0.041128006
000190 bd 28 53 bd 32 9a c1 3d d3 f3 90 3d e2 66 51 3e
       -0.051552523 0.094532385 0.07077756 0.20449403
0001a0 b6 5f 11 be 4f 6f 16 3e 67 40 8e bd 88 a9 25 bc
       -0.14196667 0.14690898 -0.069458775 -0.01011122
0001b0 6b 1f 4c 3e 00 1b 9c 3e 93 af 21 3e b3 2c 08 3e
       0.1993386 0.3048935 0.15789632 0.13298301
0001c0 57 14 d6 bd 1f 1c d3 bd 8c fd 7a bd 9b f9 02 3e
       -0.10453098 -0.10308098 -0.061276957 0.1279053
0001d0 de 46 55 3d 18 e7 62 bd a3 27 66 3d 9d a8 76 bd
       0.052069537 -0.05539617 0.056190144 -0.060219396
0001e0 84 78 86 be 8d 12 5b 3e 02 f4 7a bc b0 15 66 3d
       -0.2626382 0.21393795 -0.015316965 0.056173027
0001f0 2e d8 08 be 8f 7d 41 3e be d1 03 3e 0e 66 06 be
       -0.13363716 0.18895553 0.12872979 -0.13124868
000200 54 5e 8e bd ff c2 12 3e e8 20 fe 3d 69 67 45 be
       -0.069515854 0.14332198 0.1240862 -0.19277729
000210 c9 d9 21 3e b5 b4 ed 3d 74 df 68 3d 80 0c 31 3d
       0.15805735 0.11606733 0.056853727 0.04322481
000220 52 06 74 3e 8c 8c 2b be ea aa 0c be 0a 07 f8 3d
       0.23830536 -0.16752833 -0.13737074 0.121107176
000230 4c 1c 70 be 61 9f 05 be ae 26 06 3e 10 ff c9 3c
       -0.23448294 -0.1304908 0.13100693 0.024657756
000240 4b 27 bd 3d 6a f7 bb 3d 5f 1f 97 bc 29 7f 77 3d
       0.0923601 0.0917805 -0.018447576 0.060424004
000250 16 f0 9f bd 51 a9 08 be aa af 5b 3e 43 38 da bd
       -0.07809465 -0.13345839 0.2145373 -0.10655262
000260 b8 02 b8 3e 00 46 be 3e 02 12 87 bc d4 79 2c 3e
       0.35939574 0.3716278 -0.016488079 0.16843349
000270 9a ab bc bc fd e8 20 3e 0e 03 11 be ca 74 33 be
       -0.023031045 0.15713878 -0.14161322 -0.1752502
000280 50 c7 86 bd 70 92 85 be 23 7c 2a 3d de 70 25 be
       -0.065809846 -0.26088285 0.041622292 -0.16156337
000290 d4 13 00 be c1 1b 9d 3d 51 b8 9b bc 32 95 ce bd
       -0.12507564 0.07671309 -0.019008787 -0.100870505
0002a0 2d 06 dc 3d 4d 74 eb 3d 6f fe 23 bd a9 78 76 3e
       0.107433654 0.11496792 -0.04003757 0.24069466
0002b0 66 94 09 be 42 5a 20 3e 56 37 27 be 31 23 0a 3e
       -0.13435516 0.1565943 -0.16329703 0.13489987
0002c0 c4 06 20 be 95 1e cf bd 9e d4 c2 3e d9 ec 71 be
       -0.15627581 -0.10113255 0.3805284 -0.23625506
0002d0 d1 ce c9 bd 57 e0 3e be 1a 3b c6 3d 7a 63 2a 3e
       -0.098539 -0.18640266 0.096792415 0.1663951
0002e0 2d f4 b9 bd 39 e1 6d 3e 8c 6d 80 be f3 45 3c 3e
       -0.09079776 0.23230447 -0.25083578 0.18386059
0002f0 5e 5f e8 3d ea 48 32 3e cb 61 97 3e 54 d3 0d bd
       0.11346315 0.17410627 0.29566798 -0.034625366
000300 92 f6 32 3e ba 32 1a be 3a 6f 81 bc f0 93 ac bc
       0.17476872 -0.15058413 -0.015800107 -0.021066636
000310 35 ae 86 3d c7 9f d3 3d 68 07 d5 3d 79 28 a8 3e
       0.06576196 0.103332095 0.10401803 0.32843378
000320 ac 5e 3a 3e a4 67 2f 3e 14 59 99 3d 4b 16 a9 bd
       0.18200177 0.1712938 0.074876934 -0.08256205
000330 1d e2 7d 3c 17 45 7e bd 67 3e 57 3e bd 90 2a 3e
       0.015495804 -0.062077608 0.21019898 0.16656776
000340 08 d6 03 3d fe 3b f1 bd fd 2f 2c 3e 9d e8 15 3e
       0.032186538 -0.11779021 0.16815181 0.14639516
000350 52 b6 5e 3d b6 3c 36 be ba 8f 1e bd f2 9b 5b be
       0.054373093 -0.17796597 -0.038711287 -0.21446207
000360 de d3 64 3c 4d 1a 3f bd d9 26 dd 3c e8 36 61 3e
       0.013966529 -0.04665594 0.026996063 0.21993601
000370 94 2f 40 be 31 c9 4c 3e 06 0a b8 bd 1c 9c 1b be
       -0.1876815 0.19998623 -0.08986287 -0.1519627
000380 91 9f 20 3d 10 1d 93 be 4f 69 cd 3c 64 e3 3b 3e
       0.039214674 -0.2873311 0.02507463 0.18348461
000390 39 0c de 3d 0a 0d 50 be 5a 84 9a 3e a9 8c fa bc
       0.10842175 -0.20317474 0.301791 -0.03058465
0003a0 7a 58 36 3e 47 dd 9e 3c 6d e4 92 3d f0 fa 95 3c
       0.17807189 0.019392623 0.07172475 0.018308133
0003b0 85 66 9a 3e 44 6d b5 3e f5 b4 44 be 9f 39 c5 3e
       0.3015634 0.35434926 -0.19209655 0.38520524
0003c0 cb de a6 be 67 92 a0 3d 30 06 b4 3d 97 3e 84 be
       -0.32591853 0.07840424 0.08790243 -0.25829002
0003d0 56 b5 5e be ba e3 06 bd 30 28 40 3e e5 46 aa 3e
       -0.21748862 -0.03293202 0.1876533 0.33257213
0003e0 19 e6 3d be b1 55 a7 3e 56 57 87 bd 3a ad a0 3d
       -0.18544807 0.32682565 -0.06608455 0.0784554
0003f0 b1 f5 e4 3d 99 26 a0 3e 86 06 ff 3d 41 5d 86 3c
       0.111796744 0.31279448 0.12452416 0.016401889

sequential_1/dense_1_2/BiasAdd/ReadVariableOp f4 [32]
000000 29 e4 52 3d b7 ec 08 3e 97 d6 86 3d 3b cf c1 bb
       0.05148712 0.1337155 0.065838985 -0.0059145964
000010 00 8c 3e bd 03 41 4a bd c1 62 e0 3d 96 a9 30 3e
       -0.046520233 -0.049378406 0.10956336 0.17252192
000020 1c f6 1f 3e fc 84 cd 3d 8d d3 06 3e f9 ed 49 bd
       0.15621227 0.100351304 0.13166638 -0.049299214
000030 6f 62 63 3c df ff f9 3d bf dc 50 3e 0f c8 d8 3d
       0.013878449 0.12207007 0.20396708 0.10585033
000040 ba c5 cf 3d b3 83 83 3e 4c a1 6d 3d 13 3a d5 3d
       0.10145135 0.25686416 0.058015153 0.104114674
000050 7e 50 d1 3d fe 79 ac 3d 9e d3 49 3d 46 6f 2b bd
       0.10220431 0.08421706 0.04927408 -0.041854165
000060 d8 9d 4b 3e 04 c4 3a 3e 96 ec d4 3d 69 c5 8b 3c
       0.19884431 0.18238837 0.10396688 0.017061906
000070 0b 0e d8 3d 64 e3 3c 3d 1a 12 03 3e fd 73 16 3e
       0.105495535 0.046115294 0.12799874 0.14692684

sequential_1/dense_1/BiasAdd/ReadVariableOp f4 [64]
000000 37 e6 7f 3d ac 64 e5 3d 13 ae e5 bc c8 85 2b 3e
       0.06247541 0.11200842 -0.028037107 0.16750252
000010 ae 9f 8c 3c 80 7d e2 3d 62 da f3 bb 0b 30 74 3e
       0.017165985 0.110590935 -0.0074418047 0.23846452
000020 04 0f 90 3d e6 6b ef 3d 55 45 4f 3e 0c 97 5b 3d
       0.07034114 0.11690502 0.20241292 0.053610846
000030 ad 9b 80 3d 5d 91 fc bc 6a b7 48 3e 70 1e 42 3d
       0.06279693 -0.030831033 0.19601217 0.04739231
000040 7d 2e 62 3d 5c e8 63 3e ca 6f 71 3e c0 f4 8f 3d
       0.055220116 0.22256607 0.235778 0.07029104
000050 39 ca 0e 3d d6 6a 05 bd 46 8d 2f 3e 17 ed ac 3c
       0.034860823 -0.03257259 0.17143735 0.021109147
000060 c4 fe 90 3e 3b 91 64 3e ae 38 43 3c 15 2f 76 3e
       0.2831937 0.22321026 0.011915369 0.24041398
000070 32 16 10 3e a1 7f 06 bd d9 9a 7c bd cb c1 3d bd
       0.14070967 -0.03283656 -0.06167111 -0.046327394
000080 76 14 2b 3e 62 38 27 bd 4e 26 39 3e 0c 82 d6 3c
       0.16707024 -0.040825255 0.18081018 0.026185058
000090 3a 9b 8f 3c 9a 63 52 3e 52 08 ec 3c bc 16 e5 3d
       0.017530072 0.20545807 0.028812561 0.11185977
0000a0 2b 4a 13 3d 5c 2f 37 3e d7 cb 3f 3e 99 df b6 3d
       0.035959404 0.1788916 0.18730102 0.089293666
0000b0 56 4a 00 3e 0a e9 cd 3e b5 a3 52 bc 37 c4 c8 3d
       0.12528357 0.40216857 -0.012856414 0.0980305
0000c0 04 4f 12 bc 2d 59 00 3e b2 5d 92 3e 37 87 0b 3e
       -0.008929972 0.12534018 0.2858711 0.13625799
0000d0 20 09 80 bc 59 ba 73 3e 5a 4d 8a 3e e5 5d 51 3e
       -0.015629351 0.23801555 0.2701214 0.20445974
0000e0 b9 96 99 3e 3e 40 46 3e 3b 7c 04 3e 53 47 00 3e
       0.29997805 0.19360444 0.12938015 0.12527208
0000f0 d3 bc 03 ba 41 d6 dd 3d b6 af 06 3e 81 9a f4 3d
       -0.00050253904 0.10831881 0.13152966 0.11943532

sequential_1/dense_1/MatMul f4 [64, 4]
000000 76 4a bd 3e 21 95 93 3c 19 01 94 3e ee b2 51 3e
       0.36970872 0.018015446 0.28907087 0.20478413
000010 dd ac d9 3e 64 9b 5d be 41 fe 94 3d 6c 62 a5 bd
       0.42514697 -0.21641308 0.072750576 -0.08075413
000020 21 60 4d 3d 01 c7 29 3e 56 4f 06 3e ad da 25 bd
       0.050140504 0.1657982 0.13116202 -0.04049175
000030 39 3e a1 3e 9f 6e 4b 3c 28 c3 e3 3d 70 cf fa 3d
       0.31492785 0.012416511 0.111212075 0.12246597
000040 c6 51 cf 3d fa fa 48 3d 5a 30 2a be 10 d6 91 3e
       0.10123019 0.049067475 -0.16620007 0.2848363
000050 e5 52 d3 3e 57 86 47 be 46 72 b4 be f8 a4 1a be
       0.4127418 -0.1948484 -0.35243434 -0.15101993
000060 be 3d 13 3e 83 3d 52 be 9b 26 8a be df a5 84 3e
       0.14379022 -0.20531277 -0.2698258 0.259078
000070 06 e7 0f bf 66 0a 6c 3e a7 b7 36 3e 6c 7f 31 bd
       -0.5621189 0.23050842 0.17843495 -0.04333441
000080 be 65 77 be e8 94 85 3e fe a2 74 3e 28 7e 0e 39
       -0.24159905 0.2609017 0.23890302 0.00013589172
000090 8c 65 c0 3e 02 6d 16 3e a9 65 69 be e1 74 87 be
       0.37577474 0.1469002 -0.22792687 -0.2645636
0000a0 f3 fd d4 3e 19 f9 a5 be 60 71 79 3d 30 d9 b8 be
       0.41599998 -0.3241661 0.06089914 -0.361032
0000b0 c9 1b dd 3d 67 c7 02 39 34 3a 89 3e 45 32 0a 3e
       0.10796315 0.0001247205 0.26802218 0.13495739
0000c0 e9 a3 be 3e 0c 8f 27 be d5 90 d5 3d c0 85 34 be
       0.3723443 -0.16363162 0.10428015 -0.17629147
0000d0 a0 4e c8 bd af 40 31 3e 07 5a 0c 3d d9 fd 94 3e
       -0.097806215 0.17309831 0.034265544 0.2909992
0000e0 4b 1c 01 bf e1 c3 44 3e f5 ce da bd 54 05 da bd
       -0.50433797 0.19215347 -0.10684005 -0.106455475
0000f0 65 4b 83 3e 17 c6 33 3e 83 24 31 be ce 1c 1d 3e
       0.2564346 0.17556034 -0.17299084 0.1534302
000100 e8 f2 78 3e 8c 11 0b be 54 fa 4b be 16 cb fa bd
       0.24311411 -0.13580912 -0.19919711 -0.12245767
000110 d3 56 8d 3e 6f 69 3e 3e c9 ff 30 be ed b5 b7 be
       0.27605304 0.18594907 -0.17285074 -0.35880986
000120 80 81 bf 3e d0 a8 a3 bd 7b 63 99 3d aa 1c 6f 3e
       0.37403488 -0.07991183 0.074896775 0.23350778
000130 cd 35 24 3e b5 8d 7d 3d a9 2c 44 3e ee db 9a bd
       0.16036148 0.06190272 0.19157661 -0.075614795
000140 e6 bd 15 bd 83 64 9c 3e 38 20 38 be 53 46 9b 3e
       -0.036558054 0.30545434 -0.1798104 0.3032709
000150 cd 0d 04 3e 7d c3 75 3e 7b 90 3c 3e 3b bd 35 3e
       0.1289589 0.24000354 0.1841449 0.17747967
000160 e7 07 f9 be f0 68 9c 3e 43 80 37 3d 30 29 24 be
       -0.48638842 0.3054881 0.044800054 -0.16031337
000170 62 28 9f 3e 4b a8 c1 3d 5b 85 69 bd 0e b2 de bd
       0.31085497 0.094559275 -0.057011943 -0.10873805
000180 d6 a2 0c bf ab ba c1 3c 51 49 af bd ab 79 5b 3d
       -0.5493597 0.02364858 -0.08558906 0.05358283
000190 68 aa 92 be 22 99 14 3e 8f 0f 5b be 3d 4d 36 be
       -0.28645635 0.1451154 -0.21392654 -0.17802902
0001a0 c0 27 ea 3d fd c1 ee bd 0f 39 47 be 61 e5 9e 3e
       0.11433363 -0.11658094 -0.1945536 0.31034377
0001b0 f3 a0 f1 be ad 58 31 3e 38 cf 30 3d 90 59 9f bc
       -0.47193107 0.17318983 0.04316637 -0.019451886
0001c0 75 c5 7a 3e 54 86 4a 3e 4b 51 b3 3c ee 92 14 3d
       0.24489386 0.19777805 0.02188935 0.036272936
0001d0 46 81 45 3c 20 35 35 be cc 64 8d 3e 6b 3c fd bd
       0.012054747 -0.17696047 0.27615964 -0.123650394
0001e0 8b 4f 51 3e 19 22 48 3e 96 93 41 be 23 00 51 3e
       0.204405 0.19544257 -0.18903956 0.20410208
0001f0 79 27 ae bd e6 e7 5b 3e ed bc dc bc 42 82 0b 3e
       -0.085036226 0.21475181 -0.026945556 0.13623908
000200 c4 37 99 3e 38 f3 61 be f1 76 2e 3d 31 2a c9 be
       0.29925358 -0.22065437 0.0425939 -0.39290002
000210 c7 af b6 3c e7 4c d0 bd dc 6a 0f be 37 ec 5c be
       0.022300614 -0.10170918 -0.14005607 -0.21574484
000220 50 2b b1 3e 8f 70 c3 be 32 9c 2e be 4a 0e c7 3d
       0.34603357 -0.38171813 -0.17051771 0.09719522
000230 2f 62 31 3e c4 1c 8b be 05 d0 a8 bc e0 8b eb 3d
       0.1732261 -0.27170384 -0.020607004 0.115012884
000240 65 02 0f be 64 3a 71 3e 75 cd 18 be 5f a8 73 3a
       -0.13965757 0.2355743 -0.14922126 0.00092948036
000250 a1 98 b4 3e 40 21 ce be ea ae 11 be 0a 70 0b 3e
       0.35272697 -0.40259743 -0.1422688 0.13616958
000260 ae 39 8e be 10 f2 52 3e 5b 29 73 be 99 41 4b 3e
       -0.2777838 0.20600152 -0.23746245 0.19849242
000270 bc 50 99 be 12 e7 d8 3d 8b a7 a7 bd db f8 13 3c
       -0.29944408 0.10590948 -0.08186253 0.0090315
000280 fb 43 77 3e 75 f5 bf bd b6 ae 89 be db d8 02 3e
       0.24147026 -0.09372989 -0.26891106 0.12778036
000290 2a 20 01 bf e3 64 13 3e 11 93 27 bc 19 72 9c 3d
       -0.50439703 0.14393954 -0.010227934 0.0763895
0002a0 64 b3 b6 3e c7 5e df 3d 26 67 3c 3e fb 35 06 3e
       0.3568374 0.10906749 0.18398723 0.1310653
0002b0 b6 86 4b be cf c2 e6 bd a8 94 0f 3e 4b 64 21 3e
       -0.19875607 -0.112676255 0.14021552 0.15760915
0002c0 c6 b2 bb be 13 eb ad bb b5 d1 49 be 89 89 f8 3d
       -0.3665983 -0.005307564 -0.19708903 0.12135608
0002d0 68 3d 0c bf 2e 71 e5 bd 9c 62 d2 bd 0d d4 30 bb
       -0.547812 -0.11203228 -0.102727145 -0.002698186
0002e0 67 1a 48 3d 4b 30 4e 3e 44 91 a8 3d 6a e4 9a bd
       0.048853304 0.2013561 0.08230832 -0.07563098
0002f0 69 80 b4 be 8f 6c 27 3e aa fd 32 be 3e 1a fb 3c
       -0.3525422 0.16350006 -0.17479578 0.030652162
000300 f3 c3 3d 3d b6 4e c8 be e0 0a 9f be bb b6 71 be
       0.04632945 -0.39122552 -0.31062984 -0.23604862
000310 89 ab c7 3e 4e 5a 96 be 7d 6c 5e be 5e ea 63 3e
       0.38998058 -0.29365772 -0.21721072 0.22257373
000320 81 3b 11 bf 20 8b 11 bd 17 b0 32 be 99 f8 80 3d
       -0.5673142 -0.03553307 -0.17449985 0.06297416
000330 e7 00 b4 3e eb f2 e1 3d 07 a0 f0 3d 37 ba 41 be
       0.35156938 0.11032661 0.11749273 -0.18918692
000340 c3 eb 92 3e ba 02 5c 3e 1c 1a 80 3e cf ea 77 bd
       0.28695497 0.21485415 0.2501992 -0.060526665
000350 3a 81 62 3e b3 93 aa be ee 95 f5 be f1 4f 3b 3d
       0.22119609 -0.3331581 -0.4796595 0.045730535
000360 cc 6a 08 bf c1 c2 1b be b5 11 35 bd 4e 77 30 be
       -0.5328796 -0.15211011 -0.04420634 -0.17233011
000370 9e 3e f8 be 3c df 6b bd a8 de 41 be 33 51 3c 3e
       -0.48485273 -0.05758594 -0.18932593 0.1839035
000380 0b 65 8e 3e ad 19 41 3e 97 1e f7 be 41 2f 68 3e
       0.27811465 0.18857451 -0.48265526 0.22674276
000390 4d 94 57 be 54 53 2a 3e 73 8f 64 3d 0c 71 3d bd
       -0.21052666 0.1663335 0.055800866 -0.046250388
0003a0 0a db 6e 3e 82 63 a4 bd 7d 35 23 3e e4 ec 03 3e
       0.23325744 -0.08026792 0.15938373 0.12883335
0003b0 48 2e dd be cc 92 65 3e 8c 4a 48 be 38 f1 eb 3d
       -0.43199372 0.2241928 -0.19559687 0.11520618
0003c0 66 95 0c 3e 19 02 6d be dd 0d 36 3e 88 9d 87 bd
       0.13728866 -0.23145331 0.17778726 -0.066218436
0003d0 2d 49 df be 13 3a 65 3e 45 96 55 3d fa de 6c 3d
       -0.43610516 0.22385435 0.05214526 0.057829835
0003e0 d7 95 d2 be 1c a6 6d 3e 5d fe 51 be f0 4d 84 3d
       -0.41129944 0.23207897 -0.20507188 0.06460178
0003f0 83 4e d2 3e 2e 9a 97 be d2 fa e3 3b c9 38 bc be
       0.41075525 -0.29609817 0.0069573903 -0.36762074
